code/lenet_700epochs_20220519.pth (torch, 281607 bytes, 10 tensors)

conv_1.weight f4 [6, 3, 5, 5]
0	0xbd00708f	-0.031357344
1	0xbc902b3e	-0.017598744
2	0xbcf6297e	-0.030049082
3	0xbd9efd1d	-0.07763121
4	0x3d7ca6b0	0.061682403
5	0x3d078c77	0.033092942
6	0xbdcb6689	-0.099316664
7	0xbd08a4ff	-0.033360478
8	0x3dd5eb8b	0.10445317
9	0xbce9ba31	-0.028531166
10	0xbb69ded2	-0.003568579
11	0x3e988955	0.29792276
12	0x3e6108fd	0.21976085
13	0x3dfe7709	0.12425048
14	0x3ca73237	0.020409686
15	0x3d855b09	0.06511504
16	0x3e992a3e	0.2991504
17	0x3e7851ba	0.24249926
18	0x3e16aecb	0.14715116
19	0xbd1356eb	-0.035971563
20	0x3cfcdacf	0.030866055
21	0x3eb62353	0.35573825
22	0x3e72d0dc	0.23712486
23	0x3d1999f3	0.037500333
24	0xbe384b2c	-0.17997426
25	0xbd90a458	-0.07062596
26	0xbdc963bf	-0.09833478
27	0x3de54556	0.111948654
28	0xbd312437	-0.043247428
29	0x3b1accc0	0.0023620576
30	0x3c18454d	0.009293866
31	0xbbef223f	-0.0072977836
32	0xbe24a73f	-0.16079424
33	0x3df1275c	0.11775085
34	0x3cacc1da	0.02108853
35	0xbd73f8cc	-0.059563443
36	0xbe82da5b	-0.25557217
37	0xbda95bee	-0.08269487
38	0xbd6ee849	-0.058326993
39	0xbd590567	-0.052983668
40	0x3d849790	0.06474221
41	0xbe9a81e3	-0.3017722
42	0xbe12a1ee	-0.14319584
43	0xbe41285d	-0.18863054
44	0xbd496414	-0.049167708
45	0xbd208b86	-0.03919556
46	0xbed4c7f8	-0.41558814
47	0xbd325217	-0.04353532
48	0xbd821025	-0.063507356
49	0x3df85345	0.121252574
50	0x3e1e373a	0.15450755
51	0xbc8520bb	-0.016250959
52	0x3d9d3932	0.07676925
53	0x3d664774	0.056220487
54	0x3d6cb7de	0.057792537
55	0x3debd151	0.11514533
56	0x3da6691a	0.08125515
57	0x3df4ea5e	0.119587645
58	0xbe0f57c7	-0.13998328
59	0xbd351da4	-0.04421772
60	0x3c8a648a	0.016893644
61	0xbcd22e98	-0.025656983
62	0x3d603d67	0.054746058
63	0x3dc281f3	0.09497442
64	0x3d0b1d6d	0.03396361
65	0xbd94ed75	-0.07271854
66	0xbdb5df03	-0.08880427
67	0xbe9f00c1	-0.31055263
68	0x3d8303e9	0.0639723
69	0x3e4355d7	0.19075714
70	0x3ce26167	0.027634336
71	0xbe21d701	-0.15804674
72	0xbe8cad36	-0.274759
73	0xbe42d6d4	-0.19027263
74	0x3df48d3c	0.11941001
75	0x3dbdd705	0.09269527
76	0xbe050211	-0.1298907
77	0x3d05b1e0	0.032640338
78	0x3c8c161c	0.017100386
79	0xbdb1d836	-0.08683817
80	0x3d097dd8	0.03356728
81	0xbc9b4d4c	-0.018957756
82	0x3c8bd242	0.017068032
83	0xbdf59e70	-0.1199311
84	0x3b37b07a	0.0028028772
85	0xbd6d0e01	-0.057874683
86	0xbe82b090	-0.25525331
87	0x3dd21a67	0.10258942
88	0x3df0ec53	0.11763825
89	0x3e318011	0.1733401
90	0x3c86dc4c	0.016462468
91	0xbe0dcb89	-0.13847174
92	0x3dda7b17	0.10668009
93	0x3d376cc9	0.04478148
94	0x3c1e0677	0.009645096
95	0xbc8df1d2	-0.017327223
96	0xbc6ec968	-0.014574386
97	0x3d38435a	0.044986106
98	0x3d2486e2	0.040167697
99	0x3d757119	0.05992231
100	0xbd403bc6	-0.046932004
101	0x3e14925e	0.1450896
102	0xbdaa29fa	-0.08308788
103	0x3c068c37	0.008212141
104	0x3e25c986	0.16190156
105	0x3dcf920b	0.10135277
106	0x3c8d9e24	0.017287321
107	0x3cb4851e	0.022036131
108	0x3dd2f668	0.103009045
109	0x3daee37c	0.08539483
110	0xbd20db27	-0.0392715
111	0xbe2720ef	-0.16321157
112	0x3e3662e7	0.17811166
113	0xba58d3a8	-0.00082712853
114	0x3d946389	0.07245547
115	0xbd986860	-0.07441783
116	0x3d08db3f	0.033412214
117	0x3dac0c13	0.084007405
118	0x3df14e65	0.11782531
119	0x3d836641	0.06415988
120	0x3db3ff41	0.0878892
121	0x3d92da18	0.07170504
122	0x3d1ef44c	0.0388072
123	0x3d8dc32b	0.06921991
124	0x3e608374	0.21925145
125	0x3b9efefa	0.004852173
126	0xbe7f577d	-0.24935718
127	0xbcba96c5	-0.02277697
128	0xbda5cd3c	-0.08095786
129	0xbd94fa8d	-0.07274351
130	0x3d5a2f45	0.053267736
131	0xbe44eba6	-0.19230518
132	0xbdda08f6	-0.106462404
133	0xbe55f574	-0.20894414
134	0x3d8ee259	0.06976766
135	0x3d99ae7f	0.075039856
136	0xbe16890f	-0.14700721
137	0xbdc946f4	-0.09827986
138	0x3ca45df0	0.020064324
139	0x3dc8099c	0.09767458
140	0x3cfb2505	0.0306573
141	0xbe304e64	-0.17217404
142	0x3d970671	0.073742755
143	0xbdc9d1c7	-0.09854465
144	0x3cf8e03a	0.030380357
145	0x3da074be	0.07834767
146	0xbe3a2ccd	-0.18181153
147	0x3cfc849f	0.030824957
148	0xbd34248e	-0.043980174
149	0xbd3153a8	-0.04329267
150	0xbdb7a20f	-0.08966457
151	0x3af1d9b9	0.0018451727
152	0x3ef896f7	0.48552677
153	0x3d21aae9	0.039469633
154	0x3e4766cb	0.19472806
155	0xbd6c25cd	-0.057653237
156	0xbd168cc5	-0.036755342
157	0x3da5f3d6	0.08103149
158	0xbd4bd4d5	-0.04976352
159	0x3d918d0e	0.07106982
160	0xbbbab314	-0.0056976173
161	0xbdf377e6	-0.11888103
162	0xbf2c7cfa	-0.673782
163	0xbf19607c	-0.5991285
164	0xbec71ffc	-0.3889159
165	0x3ec12350	0.37722254
166	0xbe73574e	-0.23763773
167	0xbe1fe659	-0.15615214
168	0x3ecce611	0.40019277
169	0xbb3c7dcd	-0.0028761507
170	0x3e359b4b	0.17735021
171	0x3d49c5f8	0.049261063
172	0x3df8908e	0.121369466
173	0xbd77c51d	-0.060490716
174	0x3e6f23af	0.23353456
175	0x3cde5d95	0.027144233
176	0xbd6e57c6	-0.058189176
177	0x3e2c2c9f	0.16813897
178	0x3de49cc2	0.11162712
179	0x3e3fbc9d	0.18724294
180	0xbcf5efdb	-0.030021599
181	0xbd72704d	-0.05918913
182	0x3cf11102	0.029427055
183	0x3eb76851	0.35821775
184	0x3e283b5f	0.16428898
185	0x3e1bf1c8	0.15228951
186	0x3e6acd89	0.22929968
187	0xbe8c8120	-0.27442265
188	0xbf285fc6	-0.6577114
189	0xbecac3cd	-0.3960251
190	0x3de4bbdb	0.11168643
191	0xbe72cdca	-0.23711315
192	0x3d1c3379	0.038135026
193	0x3e8da986	0.276684
194	0x3d2368d0	0.03989488
195	0xbdf9be75	-0.1219453
196	0xbe4c0dfb	-0.19927208
197	0x3d037ca9	0.032101307
198	0x3dbabdb0	0.09118211
199	0x3d5028e0	0.05082023
200	0x3d2cd7d2	0.04219801
201	0xbd9bcaf6	-0.07607071
202	0xbdb123de	-0.08649419
203	0xbcca4072	-0.024688933
204	0x3e60a92b	0.21939532
205	0xbe7dd8ec	-0.2478978
206	0x3c8bf721	0.017085614
207	0x3e4544bc	0.19264501
208	0x3eb8bf70	0.36083555
209	0x3dcba60a	0.09943779
210	0x3d41e56a	0.047337927
211	0x3ef32751	0.47490934
212	0xbd525d52	-0.05135853
213	0xbeb77d1e	-0.35837644
214	0xbe75828b	-0.2397558
215	0xbd91c73d	-0.0711808
216	0xbc71953c	-0.014745053
217	0xbd273197	-0.040818777
218	0x3e91ba53	0.28462467
219	0xbdd9d6c1	-0.10636664
220	0x3c0e79dd	0.008696047
221	0xbe32028a	-0.17383781
222	0x3dacedda	0.08443804
223	0xbc872cec	-0.016500913
224	0xbe633ac5	-0.22190388
225	0x3e2dbfb8	0.16967666
226	0xbea8884f	-0.32916495
227	0xbd013467	-0.031544115
228	0x3e56e52e	0.20985863
229	0x3d28d4a2	0.041218407
230	0x3d690e9d	0.056898702
231	0x3d5134a6	0.0510756
232	0xbc8062cf	-0.015672116
233	0x3dc1227b	0.09430405
234	0x3e2ca30f	0.16859077
235	0xbe3c7a4b	-0.18406026
236	0x3d912ed2	0.070890084
237	0xbe62e98e	-0.22159407
238	0x3e20346e	0.15645
239	0xbe05902f	-0.13043283
240	0xbdc31409	-0.09525306
241	0xbe8dde38	-0.27708602
242	0x3e8217eb	0.25408873
243	0xbe953faf	-0.2915015
244	0x3d9a290c	0.0752736
245	0x3e4c9405	0.1997834
246	0xbdf63754	-0.12022272
247	0xbddc19d0	-0.10747111
248	0xbe317a7f	-0.17331885
249	0x3d960dc6	0.07326846
250	0xbd6cf93c	-0.057854876
251	0x3e6e8e4c	0.2329647
252	0x3cd03431	0.025415512
253	0xbdd21398	-0.102576435
254	0x3e724778	0.23660076
255	0xbeb08a07	-0.34480307

conv_1.bias f4 [6]
0	0x3e2d0eb0	0.16900134
1	0x3d9e3263	0.07724454
2	0x3d8881f2	0.0666541
3	0x3ec891f8	0.39173865
4	0xbdd0d4af	-0.10196816
5	0xbd17ef2d	-0.03709333

conv_2.weight f4 [16, 6, 5, 5]
0	0x3af2fefc	0.0018539126
1	0x3ddbc77c	0.10731408
2	0xbe884f96	-0.2662322
3	0xbd64af55	-0.055831272
4	0xbdb673bf	-0.089087956
5	0x3d1e63e7	0.038669493
6	0x3c2ffd39	0.010741525
7	0xbd7fdf2a	-0.062468685
8	0xbe021562	-0.1270347
9	0x3e078c2d	0.13237067
10	0x3e5093b2	0.20368841
11	0xbe4db1f6	-0.20087418
12	0x3c6586fe	0.014009235
13	0x3d67bdac	0.05657737
14	0xbca14fb5	-0.019691328
15	0xbe151e29	-0.14562286
16	0x3e94a9f5	0.29035917
17	0x3e3e4967	0.18582688
18	0xbd1e7e8a	-0.038694896
19	0xbef30683	-0.47465906
20	0xbd8edb59	-0.06975431
21	0xbcd3a3b0	-0.025834888
22	0xbd155b5c	-0.03646408
23	0x3dc4d215	0.096103825
24	0x3e32bcfb	0.17454903
25	0xbcc56359	-0.024095224
26	0xbe355f73	-0.17712192
27	0x3d0210b7	0.03175422
28	0x3c6ed57b	0.014577265
29	0x3df44aa2	0.119282976
30	0x3e3892ef	0.180248
31	0x3e31bc24	0.17356926
32	0xbdf54ffa	-0.11978145
33	0x3d5cd7ef	0.053916868
34	0x3b8b62d3	0.004253724
35	0x3c53193d	0.012884435
36	0xbecd4b6e	-0.4009661
37	0x3eb8b0b3	0.3607231
38	0x3bf9731b	0.0076125986
39	0x3e7fac56	0.24968085
40	0xbea5df9b	-0.3239716
41	0xbe433836	-0.19064412
42	0xbd05c143	-0.03265501
43	0x3dabe3ca	0.08393057
44	0xbe13a0f5	-0.14416869
45	0xbde94ed5	-0.11391989
46	0x3e6fbe1c	0.23412365
47	0xbe2ffa9c	-0.17185444
48	0xbe48ebb0	-0.19621158
49	0x3e280e5b	0.16411726
50	0x3e427891	0.18991305
51	0x3e26b452	0.16279724
52	0xbd67f4d5	-0.056629974
53	0x3e8105d9	0.25199774
54	0x3dc598a7	0.09648257
55	0xbc3a20e5	-0.011360382
56	0x3e7700fe	0.24121472
57	0x3e7affd2	0.2451165
58	0xbd5ef5ee	-0.054433756
59	0x3de51613	0.11185851
60	0x3dc8591d	0.09782622
61	0x3e37f2ea	0.17963758
62	0x3e8cff6f	0.2753863
63	0xbdc51d10	-0.09624684
64	0x3eb3c781	0.35113147
65	0x3dfe21d3	0.12408795
66	0x3e6a7c94	0.22899085
67	0x3d036b77	0.03208491
68	0x3e6366c3	0.22207169
69	0xbcfca7d0	-0.030841738
70	0xbc0aa06c	-0.008461099
71	0xbacb59d2	-0.001551444
72	0x3e842660	0.25810528
73	0x3db5202f	0.08844029
74	0x3c749949	0.014929124
75	0x3f23ceee	0.63987625
76	0xbe12ca45	-0.14334972
77	0xbe429b4b	-0.19004552
78	0xbe6ebeca	-0.23314968
79	0xbdcadb3c	-0.09905097
80	0xbd102c44	-0.035198465
81	0xbda2e846	-0.07954459
82	0xbca8b7db	-0.020595482
83	0xbee8d774	-0.45476878
84	0x3ea2d35c	0.3180188
85	0xbe59d53b	-0.21272747
86	0xbe45ad54	-0.193044
87	0x3ee73ea9	0.45164993
88	0x3d7a4855	0.061104137
89	0x3e6f8733	0.23391418
90	0x3e1da6b7	0.15395628
91	0x3ea83f70	0.328609
92	0x3d3570d3	0.04429705
93	0x3e80f1f5	0.251846
94	0xbeec84d8	-0.46195102
95	0x3e80ba1b	0.25141987
96	0x3d58e220	0.052950025
97	0x3e77e12e	0.24206993
98	0x3e686292	0.22693852
99	0xbe805faa	-0.25072986
100	0x3b6e39d8	0.0036350396
101	0x3e3ffdd8	0.18749177
102	0x3cdf696a	0.027271945
103	0xbe202637	-0.15639578
104	0x3d736422	0.059421666
105	0xbddcc6aa	-0.1078008
106	0x3ec459c0	0.38349724
107	0xbd9947ee	-0.074844226
108	0x3e387917	0.18014942
109	0xbde5d4ae	-0.11222206
110	0x3d8941f1	0.067020305
111	0xbe1fdc71	-0.15611435
112	0xbd98e5b7	-0.0746569
113	0x3e81c008	0.2534182
114	0xbe0e21ac	-0.13880032
115	0x3de1b379	0.1102056
116	0xbe8e26da	-0.27764016
117	0x3e02e05d	0.127809
118	0xbda976c3	-0.08274605
119	0x3e6e0e73	0.232477
120	0xbe1ca989	-0.15299048
121	0xbbcaaa7a	-0.006184873
122	0xbea51e32	-0.322496
123	0xbdb6261e	-0.08893989
124	0x3d862c9e	0.06551479
125	0xbdb2bdfc	-0.08727643
126	0xbc7bfe80	-0.015380502
127	0xbb20f2f5	-0.0024558876
128	0xbdd1e0cb	-0.10247954
129	0xbd94469e	-0.07240032
130	0x3d9b65df	0.0758779
131	0xbd37410a	-0.04473976
132	0x3d66b415	0.056324083
133	0xbd23e526	-0.040013455
134	0xbcbcc662	-0.023043815
135	0x3cafc74d	0.021457339
136	0xbd8c82c4	-0.06860879
137	0xbd118d70	-0.035535276
138	0xbc5e144a	-0.013554642
139	0xbd8cb332	-0.06870116
140	0xbcaec07f	-0.021332024
141	0x3d872645	0.06599096
142	0xbd33faf4	-0.0439405
143	0x3cbdc1d9	0.023163723
144	0xbd848506	-0.06470685
145	0xbd4bc064	-0.049744025
146	0xbd19875d	-0.037482608
147	0x3b48316a	0.0030547031
148	0xbcf4ee1b	-0.029898694
149	0xbcefda2e	-0.02927884
150	0xbd3d0c48	-0.04615429
151	0xbedd3f47	-0.4321234
152	0x3e044459	0.12916698
153	0x3e7245ef	0.2365949
154	0xbe4afad7	-0.1982225
155	0x3ec9e8e5	0.39435497
156	0xbf325c41	-0.6967202
157	0x3c47ac64	0.012187097
158	0x3d563e9e	0.05230581
159	0x3e4f8c8f	0.20268463
160	0xbf05937a	-0.52178156
161	0xbce16ac0	-0.027516723
162	0x3de6e737	0.112745695
163	0x3d8f065d	0.069836356
164	0x3cdee78b	0.027210018
165	0xbe594de8	-0.21221125
166	0x3ebeb0b5	0.37244192
167	0x3d47eacf	0.048807915
168	0xbe14cb39	-0.14530648
169	0xbe5d7a13	-0.21628599
170	0x3bcd27d5	0.006260852
171	0x3d48261a	0.04886446
172	0x3e1b097d	0.15140338
173	0xbe3c9206	-0.18415079
174	0x3cc9ae51	0.024619253
175	0xbe7e1c32	-0.24815443
176	0xbe523dd9	-0.20531406
177	0xbd23be12	-0.039976187
178	0x3e4e0c6c	0.20121926
179	0x3ec7be4d	0.39012375
180	0xbe044755	-0.12917836
181	0x3e44859e	0.19191596
182	0x3d803794	0.06260601
183	0x3e3c7127	0.18402539
184	0xbcb3d531	-0.021952244
185	0x3eae27b2	0.3401466
186	0x3e3575e8	0.17720759
187	0x3e86c964	0.26325524
188	0x3cdf1dbf	0.027235864
189	0x3e5cd1ba	0.2156438
190	0x3e03b6d6	0.12862715
191	0x3eb146be	0.34624285
192	0x3eba19ae	0.36347717
193	0x3d6812d6	0.05665859
194	0xbe872174	-0.2639271
195	0x3ec923ed	0.39285222
196	0x3e49b50d	0.19697972
197	0x3ec3ebf4	0.38265955
198	0x3d90bc78	0.070671976
199	0x3dc30de3	0.09524133
200	0x3cb79698	0.022410676
201	0x3d950e98	0.07278174
202	0xbe715fa1	-0.23571636
203	0x3de16e70	0.110073924
204	0x3b11b18f	0.0022231077
205	0x3c8aa739	0.016925441
206	0x3e50dcd0	0.20396733
207	0xbe866afc	-0.26253498
208	0xbd935922	-0.07194735
209	0x3da49df3	0.08037939
210	0x3d176b16	0.03696736
211	0xbd8d8f23	-0.06912067
212	0x3e01fbe0	0.12693739
213	0xbe9becd6	-0.3045413
214	0x3c8b7d7c	0.017027609
215	0xbdcb83bb	-0.09937235
216	0xbe07308c	-0.13202113
217	0xbd7db4ff	-0.06194019
218	0xbe13cc14	-0.14433318
219	0xbcd9cdbc	-0.02658736
220	0xbeb345b6	-0.35014123
221	0x3d9edc9d	0.077569224
222	0x3da0f390	0.07858956
223	0xbda1fc77	-0.07909482
224	0x3de702cb	0.112798296
225	0xbd8fb02a	-0.070160225
226	0x3f300c9b	0.68769234
227	0x3e2492ea	0.16071668
228	0x3e73e26c	0.23816842
229	0xba8834a4	-0.0010391665
230	0x3ecce8d4	0.40021384
231	0xbab29f0d	-0.0013627723
232	0xbe93ba79	-0.28853205
233	0xbeb98660	-0.36235332
234	0x3e05e434	0.13075334
235	0x3e4dd73c	0.20101637
236	0xbe9c7fef	-0.30566356
237	0x3d1e7d0d	0.038693476
238	0x3eb677e6	0.3563835
239	0xbe86baac	-0.26314294
240	0xbea93c11	-0.3305364
241	0x3deb826c	0.114994854
242	0xbe89dec4	-0.2692777
243	0xbd62222b	-0.055208366
244	0xbe58edc0	-0.21184444
245	0x3df56ff2	0.119842425
246	0xbf077bf8	-0.52923536
247	0x3ed18bb7	0.40926906
248	0x3e858a75	0.26082197
249	0x3ebbcfe9	0.3668206
250	0x3dda3688	0.10654932
251	0x3ec162d0	0.377707
252	0x3dfb5bfd	0.12273405
253	0x3e2f7189	0.17133154
254	0x3e8a4cfb	0.27011856
255	0x3ec42e20	0.3831644

conv_2.bias f4 [16]
0	0x3d94df27	0.072691254
1	0xbc77b46d	-0.0151187
2	0xbe27e16d	-0.16394587
3	0xbcd62789	-0.026141899
4	0x3e623a9f	0.22092675
5	0xbc92020a	-0.017823238
6	0x3dd42cd6	0.10360114
7	0x3e256a4d	0.16153832
8	0x3e091a19	0.13388862
9	0x3c25598f	0.010092153
10	0xbdbd443b	-0.092415296
11	0x3cc4c1a9	0.024018126
12	0x3e1ebdd6	0.15502104
13	0x3c8bd9b2	0.017071579
14	0xbed35816	-0.41278142
15	0x3f07c3cc	0.5303314

fc_1.weight f4 [120, 400]
0	0xbca80520	-0.020510256
1	0xbd7f4171	-0.06231827
2	0xbd1bbf14	-0.038024023
3	0x3cb82836	0.022480112
4	0xbd7d10a7	-0.06178346
5	0x3bd343ea	0.006447305
6	0xbaa92a04	-0.0012906198
7	0xbd0bc1d9	-0.034120414
8	0x3c88644b	0.016649386
9	0x3c75e6bf	0.015008627
10	0xbd223fe7	-0.039611723
11	0xbcda70c8	-0.026665106
12	0x3ceaaa8c	0.028645776
13	0x3d14ac0c	0.03629689
14	0xbd3c25e4	-0.045934573
15	0xbc82d183	-0.015969044
16	0xbbb5427f	-0.0055316086
17	0xbd0c9c56	-0.03432878
18	0x3bece2fe	0.007229208
19	0x3d139e17	0.036039438
20	0x3d7e4d4b	0.06208543
21	0x3d0377b5	0.032096583
22	0x3d875c80	0.0660944
23	0x3d8e4ff8	0.069488466
24	0x3d149c00	0.036281586
25	0xbce989f5	-0.028508166
26	0xbda72cec	-0.08162865
27	0x3aa932e7	0.0012908847
28	0xbd1bd9f1	-0.038049642
29	0x3c0b1e34	0.008491088
30	0x3b3ff150	0.002928812
31	0xbd3e1a59	-0.046411846
32	0xbca3bded	-0.019988025
33	0x3d00ed27	0.031476166
34	0xbd2ff40f	-0.04295736
35	0xbd32126a	-0.043474592
36	0xbce9460c	-0.028475784
37	0xbd4a8ea6	-0.049452446
38	0xbd895960	-0.067065
39	0xbd8a2ad3	-0.06746449
40	0xbd935a0f	-0.07194912
41	0xbdbd7ab0	-0.092519164
42	0xbc711465	-0.014714335
43	0xbd942dbe	-0.07235287
44	0xbbf138e9	-0.0073615205
45	0xbd1b4be2	-0.037914164
46	0xbc00ca49	-0.007860729
47	0xbc8e5058	-0.017372295
48	0xbdb00c64	-0.08596113
49	0xbd0e62f8	-0.034762353
50	0xbce27676	-0.027644377
51	0xbceb0d32	-0.028692815
52	0xbb8b48a7	-0.004250604
53	0x3b6fa333	0.003656578
54	0x3d3c2454	0.045933083
55	0xbd7977a5	-0.060905118
56	0xbcee9e6b	-0.029128274
57	0x3c622dc4	0.013804857
58	0x3d5482fa	0.05188272
59	0x3d4496fc	0.047995552
60	0xbc3c04d5	-0.011475761
61	0x3cae8e1a	0.021307994
62	0x3d3568fe	0.04428958
63	0xbd50617a	-0.05087421
64	0x3c8e730d	0.017388845
65	0xbd93de16	-0.07220094
66	0xbd5565c8	-0.05209902
67	0xbcd08729	-0.025455074
68	0xbd0010e1	-0.031266097
69	0xbcff9957	-0.031201048
70	0xbd4d1fac	-0.050079033
71	0x3c2c8034	0.010528613
72	0xbcd2024f	-0.025635866
73	0xbd888d8e	-0.066676244
74	0x3c2e5f50	0.010642841
75	0xbd2d2135	-0.042267997
76	0xbc7f3440	-0.015576422
77	0xbc3c54d6	-0.011494836
78	0x3cd612b5	0.026131967
79	0xbd5fa003	-0.05459596
80	0xbcb37885	-0.021908054
81	0x3c85e84d	0.016346121
82	0x3cc1fb70	0.023679465
83	0x3c9cad17	0.019125504
84	0xbca8011e	-0.020508345
85	0xbd85386c	-0.06504902
86	0x3cef7d30	0.029234499
87	0x3c5b9cc2	0.013404073
88	0xbcc7c6e4	-0.02438683
89	0xbb80e94f	-0.0039340626
90	0xbd36d505	-0.044636745
91	0xbd03edb5	-0.032209117
92	0x3c235dfd	0.009971139
93	0xbb14c5f9	-0.0022701009
94	0xbc94a27d	-0.018143887
95	0xbd770004	-0.06030275
96	0xbd7d2d91	-0.061811034
97	0x3ab2c697	0.0013639507
98	0x3bd19de0	0.006396994
99	0xbcb13cd2	-0.021635447
100	0xbd14b041	-0.0363009
101	0xbd2695cb	-0.040670197
102	0xbcda2c8f	-0.026632575
103	0x3ade6ba0	0.0016969331
104	0xbd4f4597	-0.050603475
105	0xbcdca838	-0.026935682
106	0xbc547fd0	-0.012969926
107	0xbd0c37bf	-0.03423285
108	0xbca85036	-0.02054606
109	0xbdaeda6e	-0.08537756
110	0xbd1e332e	-0.038623028
111	0xbd724a81	-0.059153084
112	0x3d4db89a	0.050224878
113	0xbc9b0cbd	-0.018926973
114	0xbd976f9c	-0.07394335
115	0xbd8ddc37	-0.06926768
116	0x3d1758cd	0.03694992
117	0x3d9f8702	0.077894226
118	0xbc0dc3ec	-0.008652668
119	0x3bde3c00	0.006782055
120	0xbd86a43d	-0.06574295
121	0x3d1f7f8f	0.03894001
122	0x3c99ff20	0.01879841
123	0xbc337b33	-0.010954666
124	0x3d3055e6	0.04305067
125	0xbcb7c6ad	-0.022433603
126	0xbc25ad66	-0.010112142
127	0xbc9f6545	-0.019457469
128	0x3db126e5	0.08649997
129	0x3cca7ef4	0.02471874
130	0xbca78222	-0.020447794
131	0x3c970015	0.018432656
132	0xbc6b9390	-0.014378443
133	0xbd4abe0b	-0.049497645
134	0x3cab67ba	0.020923484
135	0xbd881e7c	-0.066464394
136	0xbd6cb502	-0.05778981
137	0xbd816dd4	-0.06319776
138	0xbcfea539	-0.031084644
139	0xbd9b9324	-0.07596424
140	0xbd8829c4	-0.06648591
141	0xbd6f5c05	-0.058437366
142	0xbd8e7053	-0.06955018
143	0x3b8b0484	0.0042424817
144	0xbc9c8068	-0.019104198
145	0x3cba709a	0.02275877
146	0xbd977168	-0.073946774
147	0x3c0f1455	0.008732875
148	0xbd1c0871	-0.038093988
149	0xbd58ab7b	-0.05289791
150	0x3d186145	0.03720214
151	0x3d2b0744	0.041754976
152	0xb9d53ebd	-0.0004067327
153	0xbac44bd2	-0.001497621
154	0xb9ec7697	-0.00045101784
155	0xbcedde4c	-0.029036663
156	0xbba192da	-0.004930836
157	0xbc828ae5	-0.01593537
158	0xbd598542	-0.0531056
159	0xbc4ac815	-0.012376805
160	0x3cc0b3e1	0.023523273
161	0x3c9aa6ed	0.018878425
162	0xbd3e6c35	-0.046489913
163	0xbc140565	-0.009034489
164	0xbd50ad08	-0.050946265
165	0xbd5ceef0	-0.053938806
166	0x3cb0216a	0.021500308
167	0x3ade8209	0.0016976009
168	0xbae03c57	-0.0017107826
169	0x3c6ce1f3	0.014458167
170	0xbc2d5590	-0.010579482
171	0x3b4a42c2	0.0030862545
172	0x3c8d858a	0.01727559
173	0xbd4bd0b9	-0.0497596
174	0xbbe5db29	-0.0070146513
175	0x3d2626b5	0.040564258
176	0x3c89255e	0.01674145
177	0xbbf39e1a	-0.0074346187
178	0x3d3537ed	0.044242788
179	0xbd09158b	-0.03346781
180	0xbd1596ca	-0.036520757
181	0x3c452655	0.012033065
182	0x3d02f594	0.031972483
183	0xbcdaaa7f	-0.026692627
184	0xbd557a82	-0.052118786
185	0xbd72c4b8	-0.059269637
186	0x3c508c60	0.0127287805
187	0xbcd0e772	-0.025500987
188	0xbd4255b7	-0.047445025
189	0xbb8033ed	-0.00391244
190	0xbd46b11f	-0.04850876
191	0x3d1f3616	0.03886994
192	0x3d6694a8	0.056294113
193	0xbcc75e5c	-0.024336986
194	0x3c9a916f	0.018868176
195	0x3cd4f49f	0.02599555
196	0xbd00299e	-0.03128969
197	0xbcce49de	-0.025181707
198	0x3c51d501	0.012807132
199	0xbd1b260a	-0.037878074
200	0xbb93e75a	-0.0045136632
201	0x3c3f5e66	0.011680221
202	0xbd243182	-0.040086277
203	0xbb22ac96	-0.0024822108
204	0xbd5d618f	-0.054048117
205	0xbc1879b5	-0.009306361
206	0xbc2053a9	-0.009785571
207	0xbd8b670e	-0.068067655
208	0x3cdfee3f	0.027335284
209	0xbd194a04	-0.037424102
210	0xbd85804e	-0.06518613
211	0xbd8dc1ed	-0.06921754
212	0xbcc9f534	-0.024653055
213	0x3d9971fc	0.07492444
214	0xbaacb879	-0.0013177536
215	0xbd061e6f	-0.032743867
216	0xbd7e9b15	-0.062159617
217	0xbd88b6f5	-0.06675521
218	0x3b9a27ca	0.0047044503
219	0xbd262f17	-0.040572252
220	0xb9a01b78	-0.00030538044
221	0xbd8ad175	-0.06778232
222	0xbd4098a4	-0.04702057
223	0xbd36baa3	-0.044611584
224	0x3b68259b	0.0035422805
225	0xbbf8d4cf	-0.007593728
226	0x3ce66b72	0.028127406
227	0xbd233a18	-0.039850324
228	0xbcd5b816	-0.026088756
229	0x3cb81186	0.022469293
230	0xbd61a58c	-0.05508952
231	0x3be64f93	0.007028529
232	0xbd6cfad8	-0.05785641
233	0xbb910767	-0.0044259313
234	0xbd0809d5	-0.0332125
235	0xbc400951	-0.011720971
236	0x3c8d0169	0.017212586
237	0xbd6fb0a4	-0.058518067
238	0xbd6b1a08	-0.057397872
239	0xbc6973a4	-0.014248762
240	0xbd3f577c	-0.04671429
241	0x3c097d9c	0.008391764
242	0xbd03b881	-0.03215838
243	0xbcdc20cc	-0.026871108
244	0xbd2524c1	-0.040318254
245	0x3c8fc07c	0.017547838
246	0xbcd4f223	-0.025994366
247	0x3d610bd2	0.054942913
248	0xbc895c13	-0.016767537
249	0xbb2e758b	-0.0026620354
250	0x3b3ecd7f	0.0029114184
251	0xbd74ef6b	-0.05979864
252	0xbd0111ca	-0.031511106
253	0xbd1074ae	-0.035267524
254	0xbcf45061	-0.029823484
255	0xbd19b9aa	-0.03753058

fc_1.bias f4 [120]
0	0x3c0360b3	0.00801866
1	0xbd548c6d	-0.051891733
2	0xbd319d9f	-0.04336321
3	0xbd2d8d09	-0.04237083
4	0xbd06c7e7	-0.032905485
5	0xbf28f409	-0.6599737
6	0xbd21af56	-0.039473854
7	0xbfb52cd0	-1.4154301
8	0xbd6ff9d8	-0.05858788
9	0xc00fcb5d	-2.2467873
10	0x3c81fc81	0.015867474
11	0x3fffb90b	1.9978346
12	0xbd71cee1	-0.059035186
13	0xbf3ef776	-0.74596345
14	0xbb96e817	-0.004605304
15	0xbbe56ef3	-0.0070017516
16	0xbd882a47	-0.06648689
17	0x3c7465dd	0.014916864
18	0xbcacb521	-0.021082463
19	0xbc2e40fb	-0.01063561
20	0xbd758bda	-0.059947826
21	0xbd681fe1	-0.056671027
22	0xbfdb887e	-1.7151029
23	0xbd50a705	-0.050940532
24	0xbc0f9793	-0.008764165
25	0xc023dc5c	-2.5603247
26	0x3f569829	0.8382593
27	0xbcedb0fa	-0.029015053
28	0xbf4f22c1	-0.80912405
29	0x3e24232f	0.16029046
30	0xbcca13ab	-0.024667582
31	0xbd0bda81	-0.03414393
32	0xbd18ae4d	-0.0372756
33	0xbf87cc6f	-1.0609263
34	0x3f05f6de	0.52329814
35	0xbf0621fc	-0.52395606
36	0x404ce6c0	3.2015839
37	0xbd834d64	-0.064112455
38	0xbc774ee2	-0.015094491
39	0x3fa49867	1.285901
40	0xbd19c9df	-0.037546035
41	0xbd176769	-0.036963854
42	0xbc8fb15b	-0.017540624
43	0x3ec36bf8	0.3816831
44	0xbec2432f	-0.37941882
45	0x3f135fd8	0.5756812
46	0xbd32cc84	-0.043652073
47	0x3ea639c3	0.32465944
48	0xbd9aed08	-0.075647414
49	0x3e0b9cd9	0.13634051
50	0xbb063ae3	-0.0020481877
51	0x3c27e46a	0.010247329
52	0x3f054966	0.5206512
53	0xbce2b091	-0.027672084
54	0xbc26d4f7	-0.010182611
55	0xbd4031c6	-0.046922468
56	0x3f3ec049	0.74512154
57	0xbd37263f	-0.04471421
58	0x3c9c2b97	0.019063754
59	0xbfa2052b	-1.2657827
60	0xbed01451	-0.406405
61	0x3ea9435b	0.330592
62	0x3df3d48a	0.11905773
63	0xbd2a6eeb	-0.041609686
64	0x3e4088e2	0.18802217
65	0x401631a9	2.346781
66	0xbfe159b0	-1.7605495
67	0xbca4d07a	-0.02011894
68	0x3f2bb5bd	0.67074186
69	0xbc942792	-0.018085275
70	0xbda12c57	-0.07869785
71	0xbc368267	-0.011139489
72	0x3bdfcd4d	0.0068298937
73	0x3f95d3ca	1.1705258
74	0xbd454f27	-0.04817119
75	0xbd2f1316	-0.04274281
76	0xbd989ecd	-0.07452164
77	0x3fd30958	1.6487226
78	0xbfa0cb40	-1.2562027
79	0x3eb7e863	0.35919484
80	0xbd8b4073	-0.06799402
81	0x3ce0d20b	0.027443906
82	0xbd3cf74a	-0.04613427
83	0xbd7ad85a	-0.061241485
84	0xbd207695	-0.03917559
85	0xbe819df1	-0.25315812
86	0xbca2c035	-0.019867042
87	0x3eba8403	0.36428842
88	0xbd618c9e	-0.055065744
89	0x3cdbc1cb	0.026825806
90	0x3f815459	1.0103866
91	0x3ec1d2d5	0.37856165
92	0xbcf108ab	-0.029423079
93	0x3f4e3377	0.8054728
94	0xbeb1ae7e	-0.3470344
95	0x3d6dc228	0.05804649
96	0xbf0f16d3	-0.558942
97	0xbd67e16c	-0.056611463
98	0x3b84ad5c	0.0040489864
99	0xbccb5b93	-0.02482394
100	0x3a9d2eae	0.0011992061
101	0xbc2652d0	-0.01015158
102	0xbfa794de	-1.3092306
103	0x3d4c0894	0.04981287
104	0xbc8cf012	-0.017204318
105	0xbd8b9899	-0.06816215
106	0xbd1cca40	-0.038278818
107	0x3f7b22f2	0.981002
108	0x3f841143	1.0317768
109	0xbc8b7aab	-0.017026266
110	0xbe144256	-0.1447843
111	0xbd426bc8	-0.04746607
112	0x3fb6a16b	1.4268011
113	0xbd68153b	-0.056660872
114	0xbc911669	-0.017710881
115	0xbd1b288f	-0.037880477
116	0x3dd2c898	0.102921665
117	0x4017b7e5	2.370599
118	0xbd779246	-0.06044223
119	0xbf8204f9	-1.0157768

fc_2.weight f4 [84, 120]
0	0x3d76f97d	0.060296524
1	0xbd6b6b97	-0.057475653
2	0x3dd6c9cb	0.10487708
3	0xbdbfdb7d	-0.09368036
4	0xbd325aa4	-0.043543473
5	0xbac4d9e1	-0.0015018546
6	0xbcd9443b	-0.026521793
7	0xbddfa5a3	-0.109202646
8	0xbdc90fbf	-0.098174565
9	0xbe6b5ae6	-0.22983894
10	0xbdc6911b	-0.096956454
11	0x3c79438f	0.015213861
12	0x3d112846	0.0354388
13	0xbe2ae73e	-0.16689774
14	0x3d83a4c0	0.06427908
15	0xbd9a630f	-0.07538425
16	0xbd4be529	-0.04977909
17	0xbda9bfed	-0.0828856
18	0x3d996010	0.074890256
19	0xbd6d2742	-0.057898767
20	0x3d68c52b	0.05682866
21	0x3d9ccb5d	0.07655976
22	0x3e39e491	0.18153597
23	0xbc8d4ace	-0.017247584
24	0x3dd8d4cf	0.10587465
25	0xbd91f9ed	-0.07127748
26	0x3e7c37a9	0.24630608
27	0x3d2ff497	0.04295787
28	0x3dfa2a1f	0.12215065
29	0xbe0a6542	-0.1351519
30	0xbc7878f5	-0.015165557
31	0xbd3cc3de	-0.04608523
32	0x3c1cd882	0.009573104
33	0x3ef5602e	0.47924942
34	0x3d9f97f4	0.07792655
35	0x3efbebfc	0.4920348
36	0x3eb0bb87	0.34518072
37	0xbd893518	-0.0669958
38	0x3d43c762	0.04779757
39	0x3eef63ba	0.46755773
40	0x3db84e36	0.089992926
41	0xbda49297	-0.08035772
42	0xbd5c163e	-0.05373215
43	0xbe84b62c	-0.25920236
44	0x3c269d81	0.010169388
45	0x3e9d593f	0.30732152
46	0xbd6ed7fa	-0.05831144
47	0xbdd04834	-0.10170022
48	0x3d611b13	0.05495746
49	0x3e3b335a	0.18281308
50	0x3d765be4	0.060146227
51	0x3d4cdad7	0.05001339
52	0x3e70be38	0.23510063
53	0xbbccac20	-0.006246105
54	0xbddf9520	-0.10917115
55	0x3cc8e171	0.024521561
56	0xbedd3e13	-0.4321142
57	0x3dc0f8d3	0.094224595
58	0x3dba5473	0.09098139
59	0xbc914967	-0.017735196
60	0xbefc7662	-0.4930907
61	0xbcb04ea1	-0.021521868
62	0xbd01272c	-0.031531498
63	0x3d0c6c2f	0.03428286
64	0x3d566ce4	0.05234994
65	0xbf0d5b60	-0.5521755
66	0xbd37d743	-0.044883024
67	0x3c58417b	0.0131992055
68	0x3ed3d620	0.41374302
69	0x3dee379e	0.11631702
70	0x3c08f813	0.008359927
71	0x3c382f6d	0.011241776
72	0x3da446b8	0.08021301
73	0x3dd17da0	0.10229039
74	0xbc75f667	-0.01501236
75	0x3ce1027d	0.027467007
76	0xbd61f6b7	-0.055166926
77	0xbf0e69c8	-0.5563016
78	0xbdf7a06a	-0.120911434
79	0x3b47880a	0.0030446076
80	0xbd956868	-0.072953045
81	0x3da3da94	0.08000675
82	0xbac64f81	-0.0015129895
83	0x3d96bcd3	0.07360234
84	0xbbd7dc57	-0.006587546
85	0x3e345179	0.17609204
86	0xbb15af22	-0.0022839983
87	0x3e08e546	0.13368711
88	0x3daa112d	0.08304057
89	0xbd43756d	-0.047719408
90	0xbe5f643e	-0.21815583
91	0xbecc6b21	-0.39925483
92	0x3d34a79d	0.04410516
93	0xbcf0bd38	-0.029387102
94	0xbcb7a187	-0.02241589
95	0xbf1340cd	-0.57520753
96	0xbe4a12df	-0.19733761
97	0xbd8d895d	-0.069109656
98	0x3da2f369	0.07956583
99	0xbd53e460	-0.051731467
100	0xbd914039	-0.070923276
101	0xbd6027bc	-0.054725394
102	0xbd23d6b5	-0.039999682
103	0x3eccfdb4	0.4003731
104	0x3dbf7654	0.09348741
105	0x3a8ada59	0.0010593637
106	0x3c2eabd3	0.010661083
107	0xbd8cefb6	-0.06881659
108	0xbf348968	-0.70522165
109	0xbd97123d	-0.073765256
110	0x3e01cee5	0.1267658
111	0xbcda9c89	-0.02668597
112	0x3e6e5964	0.23276287
113	0x3dbd4983	0.09242537
114	0x3cf0ae3b	0.029379955
115	0x3dc4118a	0.09573658
116	0xbe976203	-0.29566965
117	0x3e533885	0.20627029
118	0x3d3d801e	0.04626476
119	0xbe2d4461	-0.16920616
120	0x3c918458	0.017763302
121	0x3d6f3fe6	0.058410548
122	0x3c5a2449	0.013314315
123	0x3c3e8a1e	0.011629609
124	0x3c5817a8	0.013189234
125	0xbd1e6922	-0.03867448
126	0xbc31d684	-0.010854367
127	0x3c4e1d98	0.012580298
128	0x3d002722	0.03128732
129	0xbd9fe421	-0.07807184
130	0xbdb2bef3	-0.08727827
131	0xbe1a119b	-0.15045778
132	0x3ceaa065	0.028640935
133	0xbcf2e6b1	-0.029651018
134	0xbcd2e86f	-0.025745599
135	0x3d386791	0.045020644
136	0xbd955dfd	-0.072933175
137	0xbd608b12	-0.054820128
138	0x3c94075f	0.018069921
139	0xbd6f4f94	-0.0584255
140	0xbb193676	-0.0023378409
141	0x3d66e3a6	0.056369446
142	0xbd0ede30	-0.034879863
143	0xb980b125	-0.00024546045
144	0xbd52fad1	-0.05150873
145	0x3c983f5e	0.018584903
146	0xbdcd1e4f	-0.100155465
147	0x3d461ce2	0.04836739
148	0xbcb65c0b	-0.022260686
149	0xbd221a82	-0.03957606
150	0x3b94c973	0.004540616
151	0x3d830c3d	0.06398819
152	0x3d446966	0.04795208
153	0xbd65a5ea	-0.05606643
154	0x3d7840b7	0.060608592
155	0xbdbd01c0	-0.092288494
156	0x3cbc23a9	0.022966223
157	0x3bd6b5f7	0.0065524536
158	0x3dae0246	0.084965274
159	0xbb63a4be	-0.0034735645
160	0x3b911c18	0.004428398
161	0x3db3ba50	0.08775771
162	0xbd017cc3	-0.031613123
163	0xbb5c9632	-0.003365886
164	0xbdd7fc4c	-0.10546169
165	0xbce73ba2	-0.028226677
166	0x3d9b80b3	0.07592907
167	0xbce3af8a	-0.027793664
168	0x3db1f813	0.086898945
169	0xbe0c7431	-0.13716199
170	0xbda1d9b3	-0.07902851
171	0x3d98e9d8	0.07466477
172	0xbde5ace4	-0.11214617
173	0xbd0ed964	-0.03487529
174	0xbbf72b1a	-0.00754298
175	0xbdbab84a	-0.091171816
176	0xbc0b9ccc	-0.00852127
177	0x3d445ea1	0.047941808
178	0xbc80ee3d	-0.0157386
179	0xbdc8e090	-0.09808457
180	0x3d0c1075	0.034195382
181	0xbca5dfec	-0.020248376
182	0xbe0b48df	-0.13602017
183	0x3da79874	0.08183375
184	0x3d3a6da2	0.04551471
185	0x3c2779d3	0.010221916
186	0x3caf9fee	0.021438565
187	0x3c9affb1	0.018920751
188	0xbcecc212	-0.028901134
189	0x3d5fe86c	0.054665014
190	0x3d96e7ef	0.073684566
191	0x3d4c4bb3	0.04987688
192	0xbc1669c3	-0.009180489
193	0xbdb2c141	-0.087282665
194	0xbd69f5a2	-0.05711902
195	0xbd746ca8	-0.059673935
196	0xbd145dcf	-0.036222275
197	0xbcc74968	-0.024326995
198	0xbdd7eea9	-0.10543568
199	0xbd764026	-0.06011977
200	0x3d32894a	0.04358796
201	0xbdb8ecf4	-0.0902957
202	0x3db583fe	0.08863066
203	0x3d53bc2a	0.05169312
204	0x3ccc0a96	0.024907392
205	0xbdd180d6	-0.10229652
206	0x3b71b437	0.0036881098
207	0xbcf2df0f	-0.029647378
208	0xbd6082f8	-0.0548124
209	0xbd2190bb	-0.039444666
210	0xbd828cce	-0.063745126
211	0xbd5c9388	-0.053851634
212	0xbd880494	-0.06641498
213	0xbd6d9233	-0.058000755
214	0xbdc82213	-0.09772124
215	0xbcedafe1	-0.02901453
216	0xbda38974	-0.079852015
217	0x3cc66560	0.024218261
218	0x3c3c8af4	0.011507738
219	0xbd3ae596	-0.045629106
220	0x3d38220d	0.04495435
221	0xbd1caadc	-0.03824888
222	0xbdd8bcff	-0.10582923
223	0xbdbe9174	-0.09305087
224	0x3d690043	0.056885015
225	0xbdad140a	-0.08451088
226	0xbce81747	-0.028331412
227	0xbd86805d	-0.06567452
228	0xbbe47dce	-0.006973005
229	0xbd9712b3	-0.073766135
230	0xbbc93e8b	-0.006141489
231	0x3d36de59	0.04464564
232	0xbd8189cf	-0.06325113
233	0x3d549d44	0.051907793
234	0xbd45e1a3	-0.048310887
235	0x3b8a8f55	0.0042285123
236	0xbdc018a1	-0.093796976
237	0xbd25517a	-0.040360905
238	0x3d6856c4	0.05672337
239	0xbe0d659f	-0.13808297
240	0x3d871003	0.06594851
241	0xbd9aeb61	-0.07564426
242	0xbd6bac6a	-0.057537474
243	0xbd80e231	-0.062931426
244	0xbb843655	-0.004034797
245	0xbbab5fca	-0.005229925
246	0xbda2225e	-0.07916711
247	0xbd33ad97	-0.04386672
248	0x3c7e6a3c	0.015528258
249	0xbdc961ed	-0.09833131
250	0x3d027ac5	0.031855363
251	0xbd422ef3	-0.047408056
252	0xbdac7409	-0.084205694
253	0xbdaea4df	-0.085275404
254	0x3ad82e9e	0.0016493385
255	0xbc5dbc75	-0.013533701

fc_2.bias f4 [84]
0	0xbf6c852b	-0.923907
1	0xbe0c4e82	-0.13701823
2	0xbdc32cfb	-0.09530064
3	0xbfffb8d5	-1.9978281
4	0x3fb1ca97	1.388995
5	0x3e36a14f	0.17834972
6	0x3f88dcab	1.0692343
7	0x3f3c2757	0.7349753
8	0x3e6b84c4	0.22999865
9	0xbecd707f	-0.4012489
10	0xbdb96d45	-0.09054045
11	0xbfb223ef	-1.3917216
12	0x3f1b5b31	0.6068602
13	0x3fe08bb5	1.7542635
14	0xbf276762	-0.65392125
15	0x3eb60cad	0.35556546
16	0xbfa342e1	-1.2754785
17	0x3f0fc202	0.5615541
18	0x3f3bfdc0	0.73434067
19	0x3f974e60	1.1820793
20	0xbc775fe1	-0.015098543
21	0x3f35ba84	0.70987725
22	0x3e7704d7	0.2412294
23	0xbed19157	-0.40931198
24	0x3fb3ca96	1.4046199
25	0xbe12604b	-0.14294545
26	0x3fca4e4e	1.5805147
27	0x3fd7aabc	1.6848979
28	0x3f893fd2	1.0722601
29	0xbdd40732	-0.10352935
30	0xbfd06f1a	-1.6283906
31	0x3f1b6f2e	0.6071652
32	0x3bcf2235	0.0063212165
33	0x3e929b77	0.28634235
34	0xbdfacbd1	-0.12245906
35	0xbf0571fb	-0.52127045
36	0xbef1252a	-0.47098666
37	0x3fbcf91e	1.4763525
38	0x3e7d48f7	0.24734865
39	0x3eada5f7	0.33915684
40	0x3fc082d2	1.5039923
41	0xbedc8707	-0.43071768
42	0xbf93fb5c	-1.1561084
43	0xbf02d0cc	-0.5109985
44	0xbd99ed86	-0.07516007
45	0x3f9929fe	1.196594
46	0x3f9b658b	1.2140363
47	0xbe8352fc	-0.2564925
48	0xbb3597b0	-0.002770882
49	0x3ef901b6	0.48634118
50	0xbec5a96f	-0.3860583
51	0x3cec458b	0.028841754
52	0xbd45887c	-0.048225865
53	0x3e199580	0.14998436
54	0xbe08e8a0	-0.1336999
55	0x3f4c2116	0.79737985
56	0xbecbaeca	-0.3978179
57	0xbccc3df3	-0.024931883
58	0xbe8c2bf1	-0.27377275
59	0xbf27109f	-0.65259737
60	0xbf52fe62	-0.8241941
61	0xbfa3bf19	-1.2792693
62	0xbc91b877	-0.017788155
63	0xbe0a48ad	-0.13504286
64	0xbde528b4	-0.11189404
65	0xbd08aae7	-0.03336611
66	0xbc232e4c	-0.0099597685
67	0x3f3815d1	0.7190829
68	0x3f738ad9	0.9513374
69	0xbdecbc76	-0.115593836
70	0x3c9f975f	0.019481359
71	0x3dc197ef	0.09452807
72	0x3e8cae3b	0.27476677
73	0xbe188043	-0.14892678
74	0x3f8e0c5a	1.1097519
75	0xbf2c9105	-0.6740878
76	0x3fa31d70	1.2743359
77	0x3f7151ec	0.9426563
78	0xbf2af07d	-0.66773206
79	0xbf9c7335	-1.2222658
80	0xc027c80b	-2.6215847
81	0xbe0bb932	-0.13644865
82	0xbfa685f0	-1.3009624
83	0xbfaac230	-1.3340511

fc_3.weight f4 [100, 84]
0	0xbd6c9ffc	-0.05776976
1	0xbd96b962	-0.07359578
2	0xbddacfae	-0.10684143
3	0x3dc07782	0.09397794
4	0x3dd947f4	0.10609427
5	0xbe3f6f2f	-0.18694757
6	0xbea0ce18	-0.31407237
7	0xbf86f0e0	-1.0542259
8	0xbe1ac907	-0.15115748
9	0x3e2a0e18	0.16606939
10	0xbdeeb614	-0.116558224
11	0xbd077ec7	-0.03307989
12	0xbf060433	-0.5235016
13	0xbd9b3ac2	-0.075795665
14	0x3d27284b	0.04080991
15	0x3d58e34c	0.052951142
16	0xbc34f140	-0.011043847
17	0xbec64114	-0.38721526
18	0xbff2d3bd	-1.8970867
19	0xbda4216a	-0.08014186
20	0x3d254450	0.04034835
21	0xbe292e7e	-0.16521642
22	0xbd93b637	-0.07212489
23	0x3edd580f	0.43231246
24	0xbe19857d	-0.14992328
25	0xbe853e11	-0.26023915
26	0xbed373f4	-0.41299403
27	0xbe9d5e7f	-0.30736157
28	0xbef1b0a2	-0.47205073
29	0xbdfc6171	-0.12323273
30	0x3e0c32c8	0.13691247
31	0xbf6e36c0	-0.9305229
32	0xbdf3f394	-0.11911693
33	0xbe75e201	-0.24011995
34	0xbb977982	-0.004622639
35	0x3e9880f3	0.2978588
36	0xbcc38cc8	-0.02387084
37	0xbe2f1dd5	-0.17101224
38	0xbd0f34cc	-0.03496246
39	0x3f347d3d	0.705036
40	0xbf57103a	-0.84009135
41	0xc00f2639	-2.236708
42	0x3d6a312b	0.057175796
43	0xbf005d91	-0.5014277
44	0xbede17c0	-0.43377495
45	0xbf6ae043	-0.91748446
46	0xbdcb15c4	-0.09916261
47	0x3e5c8205	0.21533974
48	0xbdb855eb	-0.090007626
49	0xbe5f3581	-0.21797754
50	0xbef8b4de	-0.4857549
51	0xbdc6c4f4	-0.097055346
52	0xbde69ab9	-0.1125998
53	0x3da715b4	0.081584364
54	0x3d3be5eb	0.045873564
55	0xbe854643	-0.26030168
56	0x3ec27ca7	0.37985727
57	0x3d7d3250	0.06181556
58	0x3e93d60a	0.28874236
59	0x3dd28c35	0.102806486
60	0x3e04b33b	0.12958996
61	0xbd68ae26	-0.056806706
62	0xbd8d2966	-0.06892662
63	0xbdf48de1	-0.11941124
64	0x3d6222e4	0.055209056
65	0xbe496df0	-0.19670844
66	0xbe137c7f	-0.1440296
67	0xbf09a12f	-0.5376157
68	0xbdb1087c	-0.086441964
69	0xbedb4fe3	-0.42834386
70	0xbc044d75	-0.008075108
71	0xbe1f29ef	-0.1554334
72	0xbecfd22f	-0.40590045
73	0xbe07f779	-0.13277997
74	0x3c607683	0.01370013
75	0xc084bc02	-4.14795
76	0xbf312a85	-0.69205505
77	0x3d100067	0.035156634
78	0x3e1e449f	0.15455864
79	0xbe89d7aa	-0.2692235
80	0x3e9acb01	0.30233005
81	0xbe749877	-0.23886286
82	0x3e8465d7	0.25858948
83	0xbe7419f7	-0.2383803
84	0x3f273f0f	0.65330595
85	0xbdb94f4a	-0.09048326
86	0xbbf03cd7	-0.0073314714
87	0xbe9605bd	-0.29301253
88	0xbfa0eb73	-1.2571853
89	0xbeb4020b	-0.3515781
90	0x3e140e23	0.14458518
91	0xbeebf16e	-0.46082634
92	0xbe53925a	-0.20661297
93	0xbf15fd34	-0.5858948
94	0xbdd5a02c	-0.10430941
95	0xbf57008a	-0.839852
96	0xbdb06ebb	-0.0861487
97	0x3e74b62d	0.2389762
98	0x3eaf6f37	0.34264538
99	0x3eca40f4	0.3950268
100	0xbd88ba6d	-0.06676183
101	0x3e87a68e	0.2649426
102	0x3d1e2d61	0.038617495
103	0x3c934c7f	0.017980812
104	0xbc2b6447	-0.01046092
105	0xbf06e7f3	-0.52697676
106	0x3e2a4ed2	0.1663163
107	0x3eb28aff	0.3487167
108	0x3d4825ad	0.048864055
109	0xbe1c7611	-0.15279414
110	0xbea54c83	-0.32284936
111	0xbefed748	-0.49773622
112	0xbd406a28	-0.04697624
113	0x3d6307be	0.055427305
114	0x3de5cd03	0.112207435
115	0xbea7a657	-0.32744095
116	0x3dbff739	0.09373326
117	0xbf0f6171	-0.5600806
118	0xbeb9bd4d	-0.36277238
119	0xbe17a7d0	-0.14810109
120	0x3d36e0ea	0.04464809
121	0x3eb056fb	0.3444136
122	0xbe88b1b7	-0.26698086
123	0xbea4f849	-0.32220677
124	0x3ebd128d	0.36928216
125	0xbe981561	-0.2970381
126	0x3d8b311d	0.06796477
127	0xbd097221	-0.033556107
128	0xbdf94f69	-0.121733494
129	0xbe876929	-0.26447418
130	0x3e19078e	0.14944288
131	0xbd1504af	-0.03638142
132	0xbdb95a11	-0.09050382
133	0xbe88f142	-0.26746565
134	0xbcaac7e5	-0.02084727
135	0xbdda96d7	-0.10673302
136	0x3d59e325	0.053195138
137	0xbe3a0392	-0.18165424
138	0xbe0b2175	-0.13586982
139	0xbec7d401	-0.39028934
140	0xbe2ebd74	-0.17064458
141	0xbe04ec18	-0.12980688
142	0xbe78fd09	-0.24315275
143	0xbf16a153	-0.5883991
144	0xbd3717b8	-0.044700354
145	0xbf2738b7	-0.65320915
146	0xbe15dbc6	-0.14634618
147	0x3d40f985	0.04711296
148	0x3d8444a2	0.06458403
149	0xbf510fed	-0.81664926
150	0xbc4d45c5	-0.012528841
151	0xbdac36d7	-0.08408897
152	0xbe9e5082	-0.30920798
153	0xbbb33719	-0.0054692146
154	0xbdda5a6b	-0.10661777
155	0xbe2cd80a	-0.16879287
156	0xbf4c5551	-0.7981768
157	0xbd942ef3	-0.07235517
158	0x3de73371	0.112891085
159	0x3de7379c	0.112899035
160	0xbf16f010	-0.58960056
161	0xbf050802	-0.51965344
162	0xbd050c16	-0.03248223
163	0x3be15639	0.0068767336
164	0x3e41db08	0.1893121
165	0x3e0477a1	0.1293626
166	0xbf76fa18	-0.9647536
167	0x3dc23361	0.09482456
168	0xbe11ec38	-0.14250267
169	0xbde5800d	-0.112060644
170	0xbd1bc2ed	-0.038027693
171	0xbe69f0a5	-0.22845705
172	0xbd940e99	-0.07229347
173	0x3d8966de	0.067090735
174	0xbe9d9551	-0.30777982
175	0x3ea6745b	0.32510647
176	0xbf4bfa11	-0.79678446
177	0xbe08a90b	-0.13345735
178	0xbdbec5c5	-0.09315065
179	0xbbfa24c5	-0.007633778
180	0xbe054c23	-0.13017325
181	0xbed84f4b	-0.42247996
182	0x3e1b4b09	0.15165342
183	0xbe973e07	-0.2953951
184	0x3e9c1217	0.3048255
185	0xbeed1d8d	-0.46311608
186	0xbe1dd1ec	-0.1541211
187	0xbd2c1d57	-0.04202017
188	0xbb5d1983	-0.003373713
189	0x3d115155	0.035477955
190	0xbf13d7e2	-0.57751286
191	0xbe983db1	-0.29734567
192	0x3d0b4f9a	0.03401146
193	0x3d40a477	0.047031846
194	0xbdb2587e	-0.08708285
195	0xbe721eac	-0.23644513
196	0xbeab1e54	-0.33421576
197	0xbcc05db5	-0.023482183
198	0x3db648dd	0.08900616
199	0x3e41d568	0.18929064
200	0x3da55c90	0.080742955
201	0xbf10409f	-0.56348604
202	0xbeb425c0	-0.3518505
203	0xbed44eed	-0.41466466
204	0xbf22c034	-0.6357453
205	0x3dd02574	0.101633936
206	0xbe98fa1a	-0.29878312
207	0x3c74ce97	0.014941833
208	0xbe1dcbaa	-0.15409723
209	0xc0db5b78	-6.8549156
210	0xbdb7375c	-0.08946106
211	0xbd2a526f	-0.04158252
212	0xbd9d77ce	-0.076888666
213	0xbd94222e	-0.07233082
214	0xbf200b35	-0.625171
215	0xbe2ea072	-0.17053393
216	0xbd2cada8	-0.0421578
217	0xbed40e3f	-0.4141712
218	0xbd97a489	-0.074044295
219	0xbd7d3e55	-0.061827023
220	0xbd966905	-0.0734425
221	0xbec014b4	-0.37515795
222	0x3cf3c849	0.02975859
223	0x3e6a4dfa	0.22881308
224	0xbeae342d	-0.34024182
225	0xbd49d2fc	-0.049273476
226	0xbdd6f184	-0.10495284
227	0x3d938954	0.07203928
228	0xbeadc2b6	-0.33937615
229	0x3dadde33	0.08489647
230	0xbc24c7d9	-0.010057413
231	0xbdeee286	-0.116643
232	0xbc8ca85b	-0.017170122
233	0xbf811407	-1.0084237
234	0xbc9bc41f	-0.019014416
235	0xbf13fb5a	-0.5780541
236	0xbf09487f	-0.53626245
237	0xbe30a01f	-0.17248581
238	0x3dc1bfc9	0.09460408
239	0x3e73cfea	0.23809782
240	0xbda9acd6	-0.08284919
241	0xbc3d601f	-0.011558562
242	0x3df36c66	0.1188591
243	0x3e6dbcb8	0.23216522
244	0x3cd41663	0.025889581
245	0x3e27191e	0.16318175
246	0x3d96601d	0.07342551
247	0xbe19f8d4	-0.15036327
248	0xbe71fec4	-0.23632342
249	0xbdb64e95	-0.08901707
250	0x3d5f792c	0.054558918
251	0xbd962ba3	-0.07332542
252	0xbdc2e514	-0.095163494
253	0xbe15d0c2	-0.14630416
254	0x3cb5dec0	0.022200942
255	0x3e1b68c6	0.15176687

fc_3.bias f4 [100]
0	0x3f5643d8	0.8369727
1	0x3fc08d2a	1.504308
2	0x3f32272a	0.6959101
3	0x3fdb6bb0	1.7142239
4	0x3fb5afe6	1.4194305
5	0x3fe5e25d	1.7959706
6	0x3f09d7bd	0.53844815
7	0x3e1f8215	0.15576966
8	0xbe4fb08c	-0.20282191
9	0xbf80838e	-1.0040147
10	0x3e69cffd	0.22833247
11	0xbf659679	-0.8968273
12	0x3f3ce462	0.73785985
13	0x3ea4d26a	0.32191783
14	0xbfa14d0f	-1.2601641
15	0x3fba030b	1.4532179
16	0xbf0922ba	-0.53568614
17	0xbf303362	-0.68828404
18	0x3ae34bf1	0.0017341358
19	0x3e3ade7a	0.1824893
20	0xc05be7ea	-3.43603
21	0x3fa2fac0	1.2732773
22	0xbff1c4d6	-1.8888195
23	0x3f626734	0.88438725
24	0xbefc75af	-0.49308535
25	0x3facd6b5	1.3503023
26	0x3d3e8e36	0.04652234
27	0x3feb34e9	1.8375522
28	0xbec4d01a	-0.3844002
29	0xbf89a1f2	-1.0752547
30	0x3f824906	1.0178535
31	0x3ef69044	0.4815694
32	0x3ddf2548	0.10895783
33	0x3f015d84	0.5053332
34	0x3eb4cb98	0.3531158
35	0xbed24bce	-0.4107346
36	0xbf47ea45	-0.7809184
37	0x3f73293c	0.94984794
38	0xbecd29b8	-0.4007089
39	0xc0135427	-2.3020113
40	0xbfb0e1b4	-1.3818879
41	0x3f051e93	0.5199978
42	0xbe226946	-0.15860471
43	0xbf60c1fe	-0.8779601
44	0xbeaec61f	-0.3413553
45	0x3fb774dd	1.4332539
46	0xbf06a36c	-0.5259311
47	0x3ea023b3	0.31277236
48	0x3f466cbb	0.7750966
49	0x3eddf729	0.4335263
50	0x3e0145e7	0.12624322
51	0xbe727847	-0.23678695
52	0xc00722b9	-2.1114943
53	0xbff37a4c	-1.9021697
54	0xbeedefdf	-0.4647207
55	0x3f3650d3	0.7121708
56	0xbeb4b5ad	-0.35294858
57	0xbd9ce674	-0.07661143
58	0xbe3d05e2	-0.18459275
59	0x3f46bfce	0.7763642
60	0xbf98f53d	-1.1949841
61	0xbee4bb17	-0.44673988
62	0xbfe2be9c	-1.7714419
63	0x3e6f8d8d	0.23393841
64	0x3f449d16	0.76802194
65	0x3ef9f73c	0.48821437
66	0xbebf74d1	-0.3739381
67	0x3f32f3d9	0.6990333
68	0x3d99681f	0.07490563
69	0xc01cc000	-2.4492188
70	0xbd83d7e6	-0.06437664
71	0x3e60b6a8	0.21944678
72	0x3ef45418	0.47720408
73	0x3f3cfe4d	0.7382553
74	0x3f8cffb7	1.1015538
75	0xc02a9e2a	-2.6659036
76	0xbf53b675	-0.8270028
77	0x3f9febe2	1.2493861
78	0xbd86aca0	-0.06575894
79	0xbddbd1eb	-0.10733398
80	0x3fa1bac9	1.2635127
81	0x3f37432b	0.71586865
82	0xbf683801	-0.90710455
83	0xbf170042	-0.5898477
84	0xbef2434e	-0.47316974
85	0x3e659146	0.22418699
86	0xbf96b8c9	-1.1775142
87	0x3fafdf63	1.3740047
88	0xbb9f1cf0	-0.0048557445
89	0x3f6a6e89	0.91574913
90	0xbda05706	-0.078290984
91	0x3f12da6b	0.5736453
92	0xc00aa0aa	-2.1660562
93	0x3ef489fa	0.47761518
94	0xbf4f599f	-0.80996126
95	0xbebe6ec9	-0.37193897
96	0x3f0bc9da	0.54604876
97	0xbcfb11af	-0.03064808
98	0xbf40d494	-0.7532437
99	0xbeabc82e	-0.33551162
